node {
  input: "1"
  input: "4"
  output: "13"
  op_type: "Conv"
  attribute {
    name: "kernel_shape"
    ints: 5
  }
  attribute {
    name: "strides"
    ints: 1
    ints: 1
  }
  attribute {
    name: "pads"
    ints: 0
    ints: 4
    ints: 0
    ints: 4
  }
  attribute {
    name: "dilations"
    ints: 1
    ints: 1
  }
  attribute {
    name: "group"
    i: 1
  }
}
node {
  input: "13"
  input: "5"
  output: "14"
  op_type: "Add"
  attribute {
    name: "broadcast"
    i: 1
  }
  attribute {
    name: "axis"
    i: 1
  }
}
node {
  input: "14"
  output: "15"
  op_type: "Tanh"
}
node {
  input: "15"
  output: "16"
  op_type: "MaxPool"
  attribute {
    name: "kernel_shape"
    ints: 24
  }
  attribute {
    name: "pads"
    ints: 0
  }
  attribute {
    name: "dilations"
    ints: 1
  }
  attribute {
    name: "strides"
    ints: 24
  }
}
node {
  input: "16"
  output: "17"
  op_type: "Reshape"
  attribute {
    name: "shape"
    ints: -1
    ints: 100
  }
}
node {
  input: "2"
  input: "6"
  output: "19"
  op_type: "Conv"
  attribute {
    name: "kernel_shape"
    ints: 5
  }
  attribute {
    name: "strides"
    ints: 1
    ints: 1
  }
  attribute {
    name: "pads"
    ints: 0
    ints: 4
    ints: 0
    ints: 4
  }
  attribute {
    name: "dilations"
    ints: 1
    ints: 1
  }
  attribute {
    name: "group"
    i: 1
  }
}
node {
  input: "19"
  input: "7"
  output: "20"
  op_type: "Add"
  attribute {
    name: "broadcast"
    i: 1
  }
  attribute {
    name: "axis"
    i: 1
  }
}
node {
  input: "20"
  output: "21"
  op_type: "Tanh"
}
node {
  input: "21"
  output: "22"
  op_type: "MaxPool"
  attribute {
    name: "kernel_shape"
    ints: 23
  }
  attribute {
    name: "pads"
    ints: 0
  }
  attribute {
    name: "dilations"
    ints: 1
  }
  attribute {
    name: "strides"
    ints: 23
  }
}
node {
  input: "22"
  output: "23"
  op_type: "Reshape"
  attribute {
    name: "shape"
    ints: -1
    ints: 100
  }
}
node {
  input: "17"
  input: "23"
  input: "3"
  output: "24"
  op_type: "Concat"
  attribute {
    name: "axis"
    i: 1
  }
}
node {
  input: "8"
  output: "25"
  op_type: "Transpose"
  attribute {
    name: "perm"
    ints: 1
    ints: 0
  }
}
node {
  input: "24"
  input: "25"
  input: "9"
  output: "26"
  op_type: "Gemm"
  attribute {
    name: "alpha"
    f: 1.0
  }
  attribute {
    name: "beta"
    f: 1.0
  }
  attribute {
    name: "broadcast"
    i: 1
  }
}
node {
  input: "26"
  output: "27"
  op_type: "Tanh"
}
node {
  input: "27"
  output: "29"
  output: "30"
  op_type: "Dropout"
  attribute {
    name: "ratio"
    f: 0.5
  }
  attribute {
    name: "is_test"
    i: 1
  }
}
node {
  input: "10"
  output: "31"
  op_type: "Transpose"
  attribute {
    name: "perm"
    ints: 1
    ints: 0
  }
}
node {
  input: "29"
  input: "31"
  input: "11"
  output: "32"
  op_type: "Gemm"
  attribute {
    name: "alpha"
    f: 1.0
  }
  attribute {
    name: "beta"
    f: 1.0
  }
  attribute {
    name: "broadcast"
    i: 1
  }
}
node {
  input: "32"
  output: "33"
  op_type: "Softmax"
}
node {
  input: "33"
  output: "34"
  op_type: "Log"
}
name: "torch-jit-export"
initializer {
  dims: 100
  dims: 50
  dims: 5
  data_type: FLOAT
  name: "4"
  raw_data: "…"
}
initializer {
  dims: 100
  data_type: FLOAT
  name: "5"
  raw_data: "…"
}
initializer {
  dims: 100
  dims: 50
  dims: 5
  data_type: FLOAT
  name: "6"
  raw_data: "…"
}
initializer {
  dims: 100
  data_type: FLOAT
  name: "7"
  raw_data: "…"
}
initializer {
  dims: 204
  dims: 204
  data_type: FLOAT
  name: "8"
  raw_data: "…"
}
initializer {
  dims: 204
  data_type: FLOAT
  name: "9"
  raw_data: "…"
}
initializer {
  dims: 2
  dims: 204
  data_type: FLOAT
  name: "10"
  raw_data: "…"
}
initializer {
  dims: 2
  data_type: FLOAT
  name: "11"
  raw_data: "\036\331\206>\016I\216\276"
}
input {
  name: "1"
  type {
    tensor_type {
      elem_type: FLOAT
      shape {
        dim {
          dim_value: 1
        }
        dim {
          dim_value: 50
        }
        dim {
          dim_value: 20
        }
      }
    }
  }
}
input {
  name: "2"
  type {
    tensor_type {
      elem_type: FLOAT
      shape {
        dim {
          dim_value: 1
        }
        dim {
          dim_value: 50
        }
        dim {
          dim_value: 19
        }
      }
    }
  }
}
input {
  name: "3"
  type {
    tensor_type {
      elem_type: FLOAT
      shape {
        dim {
          dim_value: 1
        }
        dim {
          dim_value: 4
        }
      }
    }
  }
}
input {
  name: "4"
  type {
    tensor_type {
      elem_type: FLOAT
      shape {
        dim {
          dim_value: 100
        }
        dim {
          dim_value: 50
        }
        dim {
          dim_value: 5
        }
      }
    }
  }
}
input {
  name: "5"
  type {
    tensor_type {
      elem_type: FLOAT
      shape {
        dim {
          dim_value: 100
        }
      }
    }
  }
}
input {
  name: "6"
  type {
    tensor_type {
      elem_type: FLOAT
      shape {
        dim {
          dim_value: 100
        }
        dim {
          dim_value: 50
        }
        dim {
          dim_value: 5
        }
      }
    }
  }
}
input {
  name: "7"
  type {
    tensor_type {
      elem_type: FLOAT
      shape {
        dim {
          dim_value: 100
        }
      }
    }
  }
}
input {
  name: "8"
  type {
    tensor_type {
      elem_type: FLOAT
      shape {
        dim {
          dim_value: 204
        }
        dim {
          dim_value: 204
        }
      }
    }
  }
}
input {
  name: "9"
  type {
    tensor_type {
      elem_type: FLOAT
      shape {
        dim {
          dim_value: 204
        }
      }
    }
  }
}
input {
  name: "10"
  type {
    tensor_type {
      elem_type: FLOAT
      shape {
        dim {
          dim_value: 2
        }
        dim {
          dim_value: 204
        }
      }
    }
  }
}
input {
  name: "11"
  type {
    tensor_type {
      elem_type: FLOAT
      shape {
        dim {
          dim_value: 2
        }
      }
    }
  }
}
output {
  name: "34"
  type {
    tensor_type {
      elem_type: FLOAT
      shape {
        dim {
          dim_value: 1
        }
        dim {
          dim_value: 2
        }
      }
    }
  }
}
